experiments/tprobe4.pt (torch, 3544 bytes, 1 tensors)

net.weight f4 [1, 512]
0	0x3e988601	0.29789737
1	0xbe4924d1	-0.1964295
2	0x3e275d63	0.16344218
3	0x3e912a65	0.28352657
4	0xbeb4c25c	-0.35304534
5	0xbe1a8659	-0.15090312
6	0x3cb99d6b	0.02265807
7	0x3e906dd6	0.28208798
8	0x3e974de4	0.29551613
9	0xbd4f3f06	-0.050597213
10	0x3cffbe65	0.031218717
11	0x3d853865	0.06504897
12	0x3d82204c	0.063538164
13	0xbdbd9192	-0.09256281
14	0x3d53427e	0.051577084
15	0xbe8e1c6c	-0.2775606
16	0x3e88e77e	0.26739115
17	0x3e428c8d	0.18998928
18	0x3e6447f9	0.2229308
19	0x3e8a27d5	0.26983514
20	0x3e84cbcb	0.25936732
21	0x3e125923	0.14291815
22	0xbd21f02b	-0.039535683
23	0xbdb2fb83	-0.08739378
24	0xbd3b548e	-0.045734935
25	0x3c4707eb	0.012147884
26	0xbe609eba	-0.2193555
27	0xbeaadf47	-0.33373472
28	0xbe8df347	-0.27724668
29	0xbceef2ce	-0.029168513
30	0x3e756772	0.23965243
31	0x3dd7c89a	0.105363086
32	0xbea814fd	-0.32828513
33	0x3ea1506b	0.31506667
34	0xbe37b745	-0.17941006
35	0x3e91b465	0.28457943
36	0xbeaa0489	-0.33206585
37	0xbe3d7856	-0.18502936
38	0x3ea7ab97	0.327481
39	0xbe7794c6	-0.24177846
40	0xbe8bfd3b	-0.27341637
41	0x3e9a272a	0.30108005
42	0xbe8ee02e	-0.2790541
43	0x3e9fda76	0.3122136
44	0x3e904e48	0.28184724
45	0x3e954dc3	0.2916089
46	0x3ea8eb0a	0.3299182
47	0xbe81ed5e	-0.2537641
48	0x3e167d28	0.14696181
49	0xbe83e5a5	-0.25761142
50	0xbe74244a	-0.23841968
51	0x3e4decaf	0.20109819
52	0x3e53b3c9	0.20674051
53	0x3e4712a6	0.19440708
54	0x3e811ec0	0.25218773
55	0xbe9288d7	-0.28620026
56	0x3e1bc181	0.15210535
57	0xbe8bf89d	-0.27338114
58	0xbdbc97ff	-0.092086785
59	0x3e3dd47b	0.18538086
60	0x3e58374f	0.21114849
61	0x3e82d83f	0.25555608
62	0x3e017fd5	0.1264642
63	0xbeb32e5a	-0.349963
64	0x3d09756f	0.03355926
65	0x3e855a07	0.26045248
66	0x3eb4fc02	0.35348517
67	0x3e99901f	0.29992768
68	0x3dbd0868	0.09230119
69	0x3e3a7631	0.18209149
70	0x3b824f41	0.003976733
71	0xbe22ede3	-0.15911059
72	0x3ec2f1d0	0.38075113
73	0xbeb3328f	-0.3499951
74	0xbe972826	-0.29522818
75	0xbc954cc4	-0.018225081
76	0x3e8862a1	0.26637748
77	0xbe5119ed	-0.20420046
78	0x3c52de6d	0.012870413
79	0xbe0332eb	-0.12812392
80	0x3e8e75a3	0.27824125
81	0x3dff5b90	0.12468636
82	0x3ea2cb61	0.3179579
83	0x3e38d24a	0.18048969
84	0xbe107f1e	-0.14110991
85	0xbe68953e	-0.22713181
86	0xbe45bb43	-0.19309716
87	0xbd90841e	-0.07056449
88	0xbe331e65	-0.17492063
89	0x3e386840	0.18008518
90	0xbecf2d21	-0.40464118
91	0xbea5682c	-0.3230604
92	0xbdf16699	-0.11787147
93	0x3daa3af7	0.08312028
94	0x3ea149b8	0.31501555
95	0x3ea5aea5	0.32359806
96	0x3e012077	0.1261004
97	0x3e098a8b	0.13431756
98	0xbe915ec5	-0.28392616
99	0xbeab00b7	-0.33398983
100	0xbdef08fa	-0.11671634
101	0xbea298b2	-0.31757122
102	0x3e975c5a	0.29562646
103	0xbe647a78	-0.22312343
104	0x3e83f98a	0.2577632
105	0x3e3d2419	0.18470801
106	0xbe926e78	-0.28599906
107	0xbe99d460	-0.30044842
108	0x3e1f03b1	0.15528752
109	0xbeae4d7d	-0.34043494
110	0x3ec76481	0.38943866
111	0xbcc62ebe	-0.02419221
112	0x3deda943	0.1160455
113	0x3d969715	0.07353035
114	0xbdfa97a5	-0.12235955
115	0xbd4b4438	-0.049625605
116	0xbe08d760	-0.13363409
117	0x3e7551d5	0.23956998
118	0x3ea5c4d4	0.3237673
119	0xbe8903d7	-0.26760742
120	0xbea8d216	-0.32972783
121	0xbee213df	-0.44155785
122	0x3e2cdded	0.16881533
123	0x3eb912c8	0.3614714
124	0xbe8631e7	-0.26209947
125	0xbe9a9087	-0.3018839
126	0x3d376acb	0.04477958
127	0x3df6d793	0.12052836
128	0xbe9edd34	-0.3102814
129	0xbe113668	-0.1418091
130	0xbe67f048	-0.22650254
131	0xbeaecee1	-0.3414221
132	0xbeace725	-0.337701
133	0xbe6cc6f0	-0.23122764
134	0x3e9fcb7d	0.31209937
135	0x3e5db27e	0.2165012
136	0x3b7414a9	0.003724376
137	0xbea06ea8	-0.31334424
138	0xbe962418	-0.29324412
139	0xbe0de112	-0.13855389
140	0x3e9a68bc	0.3015803
141	0xbeac2f73	-0.3362995
142	0xbe965458	-0.29361224
143	0x3e93d7ef	0.28875682
144	0xbe3b08dc	-0.18265098
145	0xbe3d47c5	-0.18484409
146	0x3e8f8871	0.28033784
147	0xbe9a1c61	-0.30099776
148	0xbe385c06	-0.18003854
149	0x3e5bf8f6	0.2148169
150	0x3ea061f1	0.31324723
151	0x3e72cc8f	0.23710845
152	0x3df6b3f2	0.120460406
153	0x3e79d56d	0.24397822
154	0x3e8696e5	0.26286998
155	0x3e62ee9c	0.22161335
156	0x3cdc8d93	0.026922977
157	0xbe877505	-0.26456466
158	0x3ecdf069	0.4022248
159	0x3e946d6c	0.28989732
160	0xbde44cfd	-0.11147497
161	0x3eb4a5fc	0.35282886
162	0xbd6c61e6	-0.05771055
163	0x3e83e230	0.25758505
164	0xbe521ad5	-0.20518048
165	0xbdc207d7	-0.094741516
166	0xbeab4c13	-0.33456478
167	0xbe62bc04	-0.22142035
168	0x3e8211fc	0.25404346
169	0xbe3d01e0	-0.18457747
170	0x3e6b87cd	0.23001023
171	0xbe921446	-0.28531092
172	0x3ea2f200	0.31825256
173	0xbde85578	-0.11344427
174	0xbd96c72a	-0.07362206
175	0x3e3c3506	0.18379602
176	0xbdd6ac6e	-0.10482107
177	0x3d9e6645	0.0773435
178	0xbe906bee	-0.28207344
179	0xbea80182	-0.3281365
180	0x3cbb6b8c	0.02287843
181	0x3cb92198	0.022599027
182	0xbe0a50a3	-0.13507323
183	0xbd353e26	-0.044248722
184	0xbe6e9a73	-0.23301105
185	0x3e5a143b	0.2129678
186	0xbb990e16	-0.0046708686
187	0xbec314c4	-0.3810178
188	0xbe8af21e	-0.27137846
189	0xbe7a7a8c	-0.2446081
190	0x3e2796be	0.16366097
191	0xbcd32d0b	-0.025778314
192	0xbdd6b833	-0.10484352
193	0x3e66a356	0.22523245
194	0xbeac38d7	-0.33637115
195	0x3e4c8237	0.19971548
196	0xbd67c10a	-0.05658058
197	0x3e947ec1	0.29002956
198	0xbdff6f64	-0.12472418
199	0x3e8d8fb4	0.276487
200	0xbe947bdb	-0.29000744
201	0xbe420600	-0.18947601
202	0xbe2e2619	-0.1700672
203	0xbe8d0d0f	-0.27549025
204	0xbe9d0c0d	-0.30673257
205	0x3e5f154d	0.2178547
206	0xbead99b2	-0.33906323
207	0x3ebecbfc	0.37265003
208	0x3e439a04	0.19101721
209	0xbe3f4d8a	-0.18681923
210	0x3e25d73a	0.16195384
211	0xbeafea0e	-0.34358257
212	0xbec826e2	-0.39092165
213	0xbec1625c	-0.37770355
214	0xbdaad4de	-0.083413824
215	0xbe614645	-0.21999462
216	0x3e711815	0.23544343
217	0x3d880b70	0.066428065
218	0xbde375d1	-0.11106456
219	0x3e047866	0.12936553
220	0x3ea27a79	0.31734064
221	0xbe9c30de	-0.30506033
222	0x3e872268	0.26393437
223	0xbe509112	-0.2036784
224	0xbe73aea2	-0.23797086
225	0xbeaea88f	-0.34112975
226	0x3e8ea103	0.27857217
227	0xbe592bec	-0.21208161
228	0x3e95097f	0.29108807
229	0x3d88fb23	0.066885255
230	0x3e92333d	0.28554717
231	0xbe7b051f	-0.24513672
232	0xbe59d95a	-0.2127432
233	0xbe83644d	-0.2566246
234	0xbbcd0e43	-0.0062578036
235	0x3e331edd	0.17492242
236	0x3e35ee08	0.17766583
237	0x3ed22beb	0.41049132
238	0x3e56bd85	0.20970733
239	0x3e6f73d6	0.23384032
240	0xbd7b38fc	-0.06133364
241	0x3e639fcf	0.22228931
242	0xbe32f4bd	-0.17476173
243	0x3e4b5599	0.19856872
244	0xbe96fa00	-0.2948761
245	0xbe9278a5	-0.2860767
246	0x3e78869f	0.24270104
247	0xbe8b6931	-0.27228692
248	0xbed53c7f	-0.41647717
249	0xbe0134cb	-0.12617795
250	0x3e7c36fe	0.24630353
251	0x3e56c7b0	0.20974612
252	0x3e44b9cb	0.192115
253	0xbe49f44f	-0.19722103
254	0xbea1e095	-0.31616655
255	0xbdcbc91f	-0.0995047
